…
r([0.], device='cuda:0', requires_grad=True)", 'ent_coef': 'auto', 'target_update_interval': 1, 'ent_coef_optimizer': 'Adam (\nParameter Group 0\n    amsgrad: False\n    betas: (0.9, 0.999)\n    capturable: False\n    differentiable: False\n    eps: 1e-08\n    foreach: None\n    fused: None\n    lr: 0.0003\n    maximize: False\n    weight_decay: 0\n)', 'lr_schedule': 'FloatSchedule(ConstantSchedule(val=0.0003))', 'policy': 'SACPolicy(\n  (actor): Actor(\n    (features_extractor): FlattenExtractor(\n      (flatten): Flatten(start_dim=1, end_dim=-1)\n    )\n    (latent_pi): Sequential(\n      (0): Linear(in_features=24, out_features=512, bias=True)\n      (1): ReLU()\n      (2): Linear(in_features=512, out_features=512, bias=True)\n      (3): ReLU()\n      (4): Linear(in_features=512, out_features=512, bias=True)\n      (5): ReLU()\n    )\n    (mu): Linear(in_features=512, out_features=4, bias=True)\n    (log_std): Linear(in_features=512, out_features=4, bias=True)\n  )\n  (critic): ContinuousCritic(\n    (features_extractor): FlattenExtractor(\n      (flatten): Flatten(start_dim=1, end_dim=-1)\n    )\n    (qf0): Sequential(\n      (0): Linear(in_features=28, out_features=512, bias=True)\n      (1): ReLU()\n      (2): Linear(in_features=512, out_features=512, bias=True)\n      (3): ReLU()\n      (4): Linear(in_features=512, out_features=512, bias=True)\n      (5): ReLU()\n      (6): Linear(in_features=512, out_features=1, bias=True)\n    )\n    (qf1): Sequential(\n      (0): Linear(in_features=28, out_features=512, bias=True)\n      (1): ReLU()\n      (2): Linear(in_features=512, out_features=512, bias=True)\n      (3): ReLU()\n      (4): Linear(in_features=512, out_features=512, bias=True)\n      (5): ReLU()\n      (6): Linear(in_features=512, out_features=1, bias=True)\n    )\n  )\n  (critic_target): ContinuousCritic(\n    (features_extractor): FlattenExtractor(\n      (flatten): Flatten(start_dim=1, end_dim=-1)\n    )\n    (qf0): Sequential(\n      (0): Linear(in_features=28, out_features=512, bias=True)\n      (1): ReLU()\n      (2): Linear(in_features=512, out_features=512, bias=True)\n      (3): ReLU()\n      (4): Linear(in_features=512, out_features=512, bias=True)\n      (5): ReLU()\n      (6): Linear(in_features=512, out_features=1, bias=True)\n    )\n    (qf1): Sequential(\n      (0): Linear(in_features=28, out_features=512, bias=True)\n      (1): ReLU()\n      (2): Linear(in_features=512, out_features=512, bias=True)\n      (3): ReLU()\n      (4): Linear(in_features=512, out_features=512, bias=True)\n      (5): ReLU()\n      (6): Linear(in_features=512, out_features=1, bias=True)\n    )\n  )\n)', 'actor': 'Actor(\n  (features_extractor): FlattenExtractor(\n    (flatten): Flatten(start_dim=1, end_dim=-1)\n  )\n  (latent_pi): Sequential(\n    (0): Linear(in_features=24, out_features=512, bias=True)\n    (1): ReLU()\n    (2): Linear(in_features=512, out_features=512, bias=True)\n    (3): ReLU()\n    (4): Linear(in_features=512, out_features=512, bias=True)\n    (5): ReLU()\n  )\n  (mu): Linear(in_features=512, out_features=4, bias=True)\n  (log_std): Linear(in_features=512, out_features=4, bias=True)\n)', 'critic': 'ContinuousCritic(\n  (features_extractor): FlattenExtractor(\n    (flatten): Flatten(start_dim=1, end_dim=-1)\n  )\n  (qf0): Sequential(\n    (0): Linear(in_features=28, out_features=512, bias=True)\n    (1): ReLU()\n    (2): Linear(in_features=512, out_features=512, bias=True)\n    (3): ReLU()\n    (4): Linear(in_features=512, out_features=512, bias=True)\n    (5): ReLU()\n    (6): Linear(in_features=512, out_features=1, bias=True)\n  )\n  (qf1): Sequential(\n    (0): Linear(in_features=28, out_features=512, bias=True)\n    (1): ReLU()\n    (2): Linear(in_features=512, out_features=512, bias=True)\n    (3): ReLU()\n    (4): Linear(in_features=512, out_features=512, bias=True)\n    (5): ReLU()\n    (6): Linear(in_features=512, out_features=1, bias=True)\n  )\n)', 'critic_target': 'ContinuousCritic(\n  (features_extractor): FlattenExtractor(\n    (flatten): Flatten(start_dim=1, end_dim=-1)\n  )\n  (qf0): Sequential(\n    (0): Linear(in_features=28, out_features=512, bias=True)\n    (1): ReLU()\n    (2): Linear(in_features=512, out_features=512, bias=True)\n    (3): ReLU()\n    (4): Linear(in_features=512, out_features=512, bias=True)\n    (5): ReLU()\n    (6): Linear(in_features=512, out_features=1, bias=True)\n  )\n  (qf1): Sequential(\n    (0): Linear(in_features=28, out_features=512, bias=True)\n    (1): ReLU()\n    (2): Linear(in_features=512, out_features=512, bias=True)\n    (3): ReLU()\n    (4): Linear(in_features=512, out_features=512, bias=True)\n    (5): ReLU()\n    (6): Linear(in_features=512, out_features=1, bias=True)\n  )\n)', 'batch_norm_stats': '[]', 'batch_norm_stats_target': '[]', '_logger': '<stable_baselines3.common.logger.Logger object at 0x7f20b2fd1960>'}
