…
        python_version: 3.10.19
        t:
            "1":
                - 1
            "2":
                - 1
            "3":
                - 13
                - 16
                - 22
                - 35
            "4": 3.10.19
            "5": 0.23.0
            "12": 0.23.0
            "13": linux-x86_64
action_noise:
    value: None
action_space:
    value: Box(-1.0, 1.0, (4,), float32)
actor:
    value: |-
        Actor(
          (features_extractor): FlattenExtractor(
            (flatten): Flatten(start_dim=1, end_dim=-1)
          )
          (latent_pi): Sequential(
            (0): Linear(in_features=24, out_features=512, bias=True)
            (1): ReLU()
            (2): Linear(in_features=512, out_features=512, bias=True)
            (3): ReLU()
            (4): Linear(in_features=512, out_features=512, bias=True)
            (5): ReLU()
          )
          (mu): Linear(in_features=512, out_features=4, bias=True)
          (log_std): Linear(in_features=512, out_features=4, bias=True)
        )
algo:
    value: SAC
batch_norm_stats:
    value: '[]'
batch_norm_stats_target:
    value: '[]'
batch_size:
    value: 256
buffer_size:
    value: 100000
critic:
    value: |-
        ContinuousCritic(
          (features_extractor): FlattenExtractor(
            (flatten): Flatten(start_dim=1, end_dim=-1)
          )
          (qf0): Sequential(
            (0): Linear(in_features=28, out_features=512, bias=True)
            (1): ReLU()
            (2): Linear(in_features=512, out_features=512, bias=True)
            (3): ReLU()
            (4): Linear(in_features=512, out_features=512, bias=True)
            (5): ReLU()
            (6): Linear(in_features=512, out_features=1, bias=True)
          )
          (qf1): Sequential(
            (0): Linear(in_features=28, out_features=512, bias=True)
            (1): ReLU()
            (2): Linear(in_features=512, out_features=512, bias=True)
            (3): ReLU()
            (4): Linear(in_features=512, out_features=512, bias=True)
            (5): ReLU()
            (6): Linear(in_features=512, out_features=1, bias=True)
          )
        )
critic_target:
    value: |-
        ContinuousCritic(
          (features_extractor): FlattenExtractor(
            (flatten): Flatten(start_dim=1, end_dim=-1)
          )
          (qf0): Sequential(
            (0): Linear(in_features=28, out_features=512, bias=True)
            (1): ReLU()
            (2): Linear(in_features=512, out_features=512, bias=True)
            (3): ReLU()
            (4): Linear(in_features=512, out_features=512, bias=True)
            (5): ReLU()
            (6): Linear(in_features=512, out_features=1, bias=True)
          )
          (qf1): Sequential(
            (0): Linear(in_features=28, out_features=512, bias=True)
            (1): ReLU()
            (2): Linear(in_features=512, out_features=512, bias=True)
            (3): ReLU()
            (4): Linear(in_features=512, out_features=512, bias=True)
            (5): ReLU()
            (6): Linear(in_features=512, out_features=1, bias=True)
          )
        )
device:
    value: cuda
ent_coef:
    value: auto
ent_coef_optimizer:
    value: |-
        Adam (
        Parameter Group 0
            amsgrad: False
            betas: (0.9, 0.999)
            capturable: False
            differentiable: False
            eps: 1e-08
            foreach: None
            fused: None
            lr: 0.0003
…
